
_________________________________________________________________
Layer (type)                 Output Shape              Param #
=================================================================
conv2d (Conv2D)              (None, 28, 28, 27)        702
_________________________________________________________________
max_pooling2d (MaxPooling2D) (None, 14, 14, 27)        0
_________________________________________________________________
conv2d_1 (Conv2D)            (None, 14, 14, 64)        43264
_________________________________________________________________
max_pooling2d_1 (MaxPooling2 (None, 7, 7, 64)          0
_________________________________________________________________
flatten (Flatten)            (None, 3136)              0
_________________________________________________________________
dense (Dense)                (None, 210)               658770
_________________________________________________________________
dense_1 (Dense)              (None, 10)                2110
=================================================================
Total params: 704,846
Trainable params: 704,846
Non-trainable params: 0

Original data analyses:
history {'loss': [0.7275635004043579, 0.04267386719584465, 0.030339105054736137, 0.025165734812617302, 0.0207691453397274, 0.020348014310002327, 0.021504292264580727, 0.02294069342315197, 0.020858705043792725, 0.0199966449290514, 0.0211
…
