1 layer:
_________________________________________________________________
Layer (type)                 Output Shape              Param #
=================================================================
conv2d (Conv2D)              (None, 28, 28, 27)        702
_________________________________________________________________
max_pooling2d (MaxPooling2D) (None, 14, 14, 27)        0
_________________________________________________________________
flatten (Flatten)            (None, 5292)              0
_________________________________________________________________
dense (Dense)                (None, 210)               1111530
_________________________________________________________________
dense_1 (Dense)              (None, 10)                2110
=================================================================
Total params: 1,114,342
Trainable params: 1,114,342
Non-trainable params: 0

"history"{
    "loss":[
        1.1200178861618042,
        0.2614540159702301,
        0.1560477614402771,
        0.11090827733278275,
        0.08711599558591843,
        0.07394163310527802,
        0.06513629108667374,
        0.058282218873500824,
        0.054071683436632156,
…
        0.9739999771118164,
        0.9786666631698608,
        0.9773333072662354,
        0.9766666889190674,
        0.9796666502952576,
        0.9815000295639038,
        0.9815000295639038,
        0.9848333597183228,
        0.9788333177566528,
        0.9854999780654907
    ]
}

Taxa de Erros: 0.0460
Taxa de Acurácia: 0.9845
Previsões erradas: 155/10000


2 layers:
_________________________________________________________________
Layer (type)                 Output Shape              Param #
=================================================================
conv2d (Conv2D)              (None, 28, 28, 27)        702
_________________________________________________________________
max_pooling2d (MaxPooling2D) (None, 14, 14, 27)        0
_________________________________________________________________
conv2d_1 (Conv2D)            (None, 14, 14, 64)        43264
_________________________________________________________________
max_pooling2d_1 (MaxPooling2 (None, 7, 7, 64)          0
_________________________________________________________________
flatten (Flatten)            (None, 3136)              0
_________________________________________________________________
dense (Dense)                (None, 210)               658770
_________________________________________________________________
dense_1 (Dense)              (None, 10)                2110
=================================================================
Total params: 704,846
Trainable params: 704,846
Non-trainable params: 0

Normalized data analyses:
"history"{
    "loss":[
        0.7909096479415894,
        0.10868190973997116,
        0.06533792614936829,
        0.04908183962106705,
        0.038459472358226776,
        0.03167970851063728,
        0.02611870877444744,
        0.021268444135785103,
…
        0.984499990940094,
        0.9856666922569275,
        0.9854999780654907,
        0.9868333339691162,
        0.9865000247955322,
        0.987333357334137,
        0.9856666922569275,
        0.9836666584014893,
        0.9856666922569275,
        0.9869999885559082,
        0.9879999756813049
    ]
}

Taxa de Erros: 0.0631
Taxa de Acurácia: 0.9876
Previsões erradas: 124/10000

3 layers:
_________________________________________________________________
Layer (type)                 Output Shape              Param #
=================================================================
conv2d (Conv2D)              (None, 28, 28, 27)        702
_________________________________________________________________
max_pooling2d (MaxPooling2D) (None, 14, 14, 27)        0
_________________________________________________________________
conv2d_1 (Conv2D)            (None, 14, 14, 64)        43264
_________________________________________________________________
max_pooling2d_1 (MaxPooling2 (None, 7, 7, 64)          0
_________________________________________________________________
conv2d_2 (Conv2D)            (None, 7, 7, 64)          102464
_________________________________________________________________
max_pooling2d_2 (MaxPooling2 (None, 3, 3, 64)          0
_________________________________________________________________
flatten (Flatten)            (None, 576)               0
_________________________________________________________________
dense (Dense)                (None, 210)               121170
_________________________________________________________________
dense_1 (Dense)              (None, 10)                2110
=================================================================
Total params: 269,710
Trainable params: 269,710
Non-trainable params: 0

"history"{
    "loss":[
        0.6160222887992859,
        0.07784950733184814,
        0.051071539521217346,
        0.0377696268260479,
        0.030690358951687813,
        0.026026707142591476,
        0.022654391825199127,
        0.018256900832057,
        0.01654275692999363,
…
        0.9861666560173035,
        0.987333357334137,
        0.9891666769981384,
        0.9901666641235352,
        0.9896666407585144,
        0.9888333082199097,
        0.9909999966621399,
        0.987500011920929,
        0.9893333315849304,
        0.9878333210945129,
        0.9904999732971191
    ]
}

Taxa de Erros: 0.0597
Taxa de Acurácia: 0.9888
Previsões erradas: 112/10000


4 layers:
_________________________________________________________________
Layer (type)                 Output Shape              Param #
=================================================================
conv2d (Conv2D)              (None, 28, 28, 27)        702
_________________________________________________________________
max_pooling2d (MaxPooling2D) (None, 14, 14, 27)        0
_________________________________________________________________
conv2d_1 (Conv2D)            (None, 14, 14, 64)        43264
_________________________________________________________________
max_pooling2d_1 (MaxPooling2 (None, 7, 7, 64)          0
_________________________________________________________________
conv2d_2 (Conv2D)            (None, 7, 7, 64)          102464
_________________________________________________________________
max_pooling2d_2 (MaxPooling2 (None, 3, 3, 64)          0
_________________________________________________________________
conv2d_3 (Conv2D)            (None, 3, 3, 64)          102464
_________________________________________________________________
max_pooling2d_3 (MaxPooling2 (None, 1, 1, 64)          0
_________________________________________________________________
flatten (Flatten)            (None, 64)                0
_________________________________________________________________
dense (Dense)                (None, 210)               13650
_________________________________________________________________
dense_1 (Dense)              (None, 10)                2110
=================================================================
Total params: 264,654
Trainable params: 264,654
Non-trainable params: 0

"history"{
    "loss":[
        0.6765938997268677,
        0.08418207615613937,
        0.055281855165958405,
        0.03954850882291794,
        0.033132147043943405,
        0.02743583917617798,
        0.02323518507182598,
        0.0207835603505373,
        0.019659465178847313,
…
